speech_recognition.onnx (onnx, 1422 bytes, 2 tensors)

weight f4 [3, 3, 1, 32]
-1.1608952 -0.3285887 -0.09716197 -1.5771186 0.6438494 1.3923454 1.013647 0.10242904
-0.04992421 -0.5761657 -0.5798491 -1.1852936 -0.408541 0.5100644 3.5866396 -1.4157069
-2.0268197 2.2351356 -1.677343 -1.0747702 -0.3471755 0.14734454 -0.7455229 0.09748815
2.4651597 -0.7092394 1.8285275 -1.3629916 0.4095074 -0.06582348 -0.89441794 1.8817647
-0.6543283 -0.052817788 0.61868346 0.18298055 -1.9604331 -0.4684092 -1.0266749 0.70869374
1.5523678 1.3030934 0.584142 0.7435874 -1.0011574 0.56340444 -0.3130567 -0.020048093
0.8741473 -0.38977242 -1.8776357 1.6288108 -0.20185703 -0.79138553 -0.44217855 -0.49750927
0.8667946 -0.6909123 1.2969177 0.45634848 0.32579094 1.5876259 -1.548859 -0.66859835
-2.2407267 -0.42452997 -0.56798583 1.980653 -0.16071285 0.9019159 0.1460686 0.67700106
0.16760458 0.45903152 -0.6779366 -2.0061462 -0.47265875 1.6198142 -0.9620225 0.44042888
0.7934002 0.5253912 -2.1464312 0.45398933 0.30797777 -0.798032 0.44046906 -0.8280214
-0.96408015 1.0289501 0.8691381 1.3130962 -1.29981 0.7063904 -0.76408005 0.7275606
0.011022241 -0.6235472 1.6841439 1.2068257 -0.75065345 -0.79722255 0.43761972 -0.030328393
-0.78711325 -0.06540558 -0.98324186 0.3749447 0.54740477 1.2698027 -0.19970441 0.9415946
1.3540483 1.1775748 -0.2533959 0.6124275 -1.0688869 0.23639461 0.42653033 -1.4614909
-0.45397 1.9755671 -1.3809547 -0.9821388 -0.18153535 -0.017057175 1.4012831 -0.92584795
1.425451 -0.36773917 0.4247364 -0.15775193 -0.577347 -1.6372914 -1.8787252 0.47701687
0.45185047 0.4247681 0.17993937 -2.0637352 0.9234058 -0.09828225 0.08690942 0.8042186
1.1458673 1.021979 -0.9769329 1.4404086 0.060519997 -1.1408626 0.726069 1.2863191
-0.05333427 1.3920578 -2.0221994 1.9854234 2.165859 -0.113870814 -0.22738808 0.762185
-0.1913486 1.9056749 -0.85146224 -0.44118616 -0.17321269 0.33185455 0.23884921 0.6821276
-0.69488555 -0.5539668 -0.4094235 0.18901347 1.1169426 1.0083362 0.68484575 -0.5664722
0.6457668 2.4272492 0.54439795 -1.8928941 -0.061489053 -0.13367479 0.90922445 0.094236515
-1.1712697 -0.043983474 0.12957123 -1.4774762 0.5566631 1.5607777 0.66491705 -0.35511243
0.24763002 -1.6405429 2.2165382 2.8420043 3.3035262 0.28695253 -0.16217336 0.37574387
0.45430258 0.7213256 -1.6776712 -0.35705325 -0.547159 -0.3506633 -0.949107 1.0023463
1.2754152 0.47948554 -0.46488288 -0.6454096 0.044689093 -0.45876908 -0.42792243 -1.1019715
0.025103403 0.52327853 -0.13684084 0.23594376 0.65805274 -0.15446432 -0.44393817 -1.2152283
1.7407265 -1.0798676 0.34841484 0.032964677 0.020727003 -0.6909775 -1.9650459 -0.31821713
0.9792196 0.6824771 1.5274786 -0.20188719 -0.756424 0.27400604 -1.477562 -0.24965833
0.036787555 1.0045741 -0.48647124 0.95796186 1.3238708 0.9271988 -1.2704812 1.8759567
-0.26790473 -1.9650222 -1.6996772 0.4788604 0.12217336 1.560295 1.6755743 0.011306449
00000000: 3798 94bf c73c a8be dbfc c6bd 06df c9bf
00000010: 50d3 243f 6038 b23f 2fbf 813f 51c6 d13d
00000020: 547d 4cbd 987f 13bf fe70 14bf b3b7 97bf
00000030: 492c d1be 9593 023f 818b 6540 e235 b5bf
00000040: 6ab7 01c0 760c 0f40 2db3 d6bf 1292 89bf
00000050: fdc0 b1be 7de1 163e 97da 3ebf dea7 c73d
00000060: 2dc5 1d40 b790 35bf 300d ea3f 8276 aebf
00000070: f4aa d13e 76ce 86bd 93f8 64bf aadd f03f
00000080: 0f82 27bf 7757 58bd 0a62 1e3f 415f 3b3e
00000090: 79ef fabf 55d3 efbe 156a 83bf f46c 353f
000000a0: fdb3 c63f c4cb a63f 558a 153f be5b 3e3f
000000b0: ed25 80bf 463b 103f f848 a0be e63b a4bc
000000c0: 1ec8 5f3f 4090 c7be 5e56 f0bf df7c d03f
000000d0: 9cb3 4ebe 3e98 4abf 3a65 e2be 89b9 febe
000000e0: 40e6 5d3f a1df 30bf 6601 a63f 82a6 e93e
000000f0: 12ce a63e 5337 cb3f 0341 c6bf 4329 2bbf
00000100: 1168 0fc0 fe5b d9be 8567 11bf 0a86 fd3f
00000110: e991 24be f6e3 663f 0293 153e f14f 2d3f
00000120: 89a0 2b3e 2e06 eb3e 418d 2dbf b364 00c0
00000130: 5400 f2be 1256 cf3f 1b47 76bf e57f e13e
00000140: 471c 4b3f 0a80 063f 215f 09c0 4a71 e83e
00000150: 43af 9d3e d34b 4cbf 2985 e13e 36f9 53bf
00000160: f5cd 76bf a3b4 833f d67f 5e3f 8913 a83f
00000170: 2d60 a6bf 00d6 343f c09a 43bf 6941 3a3f
00000180: a196 343c caa0 1fbf 0792 d73f 4479 9a3f
00000190: d32a 40bf c716 4cbf b10f e03e 4073 f8bc
000001a0: 4180 49bf 5cf3 85bd bdb5 7bbf c0f8 bf3e
000001b0: b822 0c3f e588 a23f 507f 4cbe 580c 713f
000001c0: 7451 ad3f c5ba 963f 1bbd 81be 0cc8 1c3f
000001d0: 49d1 88bf 6e11 723e 2f62 da3e 2212 bbbf
000001e0: c16e e8be 62df fc3f 20c3 b0bf 736d 7bbf
000001f0: 67e4 39be 7dbb 8bbc 3f5d b33f 5f04 6dbf
00000200: 2e75 b63f 4f48 bcbe 0d77 d93e b989 21be
00000210: 03cd 13bf c492 d1bf 117a f0bf 8e3b f43e
00000220: f258 e73e 347b d93e 0742 383e 3d14 04c0
00000230: 5364 6c3f 3448 c9bd 91fd b13d 45e1 4d3f
00000240: c8ab 923f 35d0 823f 4618 7abf 4f5f b83f
00000250: d1e3 773d c907 92bf a8df 393f 1ba6 a43f
00000260: 0975 5abd f32e b23f b76b 01c0 5b22 fe3f
00000270: 6f9d 0a40 1a35 e9bd 6cd8 68be 8e1e 433f
00000280: e3f0 43be 28ed f33f 6ef9 59bf 27e3 e1be
00000290: ab5e 31be d7e8 a93e e394 743e ea9f 2e3f
000002a0: 05e4 31bf c5d0 0dbf f59f d1be bf8c 413e
000002b0: faf7 8e3f 2911 813f 0d52 2f3f 5204 11bf
000002c0: f950 253f 0d58 1b40 aa5d 0b3f 5b4a f2bf
000002d0: f2db 7bbd 0be2 08be efc2 683f 13ff c03d
000002e0: 2aec 95bf 0428 34bd 52ae 043e f11d bdbf
000002f0: 7981 0e3f 90c7 c73f 0138 2a3f 4cd1 b5be
00000300: b992 7d3e 4ffd d1bf c3db 0d40 66e3 3540
00000310: f96c 5340 71eb 923e c610 26be 8061 c03e
00000320: 599a e83e cba8 383f eebd d6bf afcf b6be
00000330: 9d12 0cbf 248a b3be adf8 72bf e24c 803f
00000340: ce40 a33f 217f f53e 2105 eebe 9039 25bf
00000350: e90b 373d c8e3 eabe a618 dbbe 670d 8dbf
00000360: a7a5 cd3c 95f5 053f 0120 0cbe 3e9b 713e
00000370: 2576 283f e52b 1ebe dd4b e3be 9a8c 9bbf
00000380: 20d0 de3f 1a39 8abf 6e63 b23e f805 073d
00000390: adcb a93c e7e3 30bf a086 fbbf 5bed a2be
000003a0: 23ae 7a3f d2b6 2e3f 6b84 c33f 84bb 4ebe
000003b0: 01a5 41bf 854a 8c3e c020 bdbf 6fa6 7fbe
000003c0: 8cae 163d e295 803f c212 f9be fd3c 753f
000003d0: 9974 a93f e75c 6d3f 219f a2bf 591f f03f
000003e0: cf2a 89be d985 fbbf 068f d9bf 312d f53e
000003f0: 0736 fa3d bfb7 c73f 3879 d63f af3e 393c

bias f4 [32]
0.0 0.0 0.0 0.0 0.0 0.0 0.0 0.0
0.0 0.0 0.0 0.0 0.0 0.0 0.0 0.0
0.0 0.0 0.0 0.0 0.0 0.0 0.0 0.0
0.0 0.0 0.0 0.0 0.0 0.0 0.0 0.0
00000000: 0000 0000 0000 0000 0000 0000 0000 0000
00000010: 0000 0000 0000 0000 0000 0000 0000 0000
00000020: 0000 0000 0000 0000 0000 0000 0000 0000
00000030: 0000 0000 0000 0000 0000 0000 0000 0000
00000040: 0000 0000 0000 0000 0000 0000 0000 0000
00000050: 0000 0000 0000 0000 0000 0000 0000 0000
00000060: 0000 0000 0000 0000 0000 0000 0000 0000
00000070: 0000 0000 0000 0000 0000 0000 0000 0000
