speech_recognition.onnx (onnx, 1417 bytes, 2 tensors)

weight f4 [3, 3, 1, 32]
000000 cc 14 57 3f 6b 93 88 bf 8f b9 f4 be 5a dc 02 3f
       0.8401611 -1.0669988 -0.4779782 0.5111748
000010 5f dc 73 bf 4a ec 6e 3f 9a ce 12 3f 80 b7 e9 3e
       -0.95258135 0.933293 0.573465 0.45647812
000020 26 d9 12 3f 9b 98 94 3f 3a e3 ec 3e 43 99 97 3f
       0.5736259 1.1609071 0.4626711 1.1843647
000030 76 57 27 be 59 65 9a 3f 6c f8 92 bf d7 59 7d bf
       -0.16341957 1.2062179 -1.1482062 -0.9896521
000040 b0 8e f5 be 9c 87 13 3f 86 8a 12 3f 22 fd a2 3e
       -0.47960424 0.576288 0.5724262 0.3183375
000050 54 d3 2e bf 59 0b 48 bf d5 4c 52 bf 8a 58 77 3d
       -0.6829121 -0.78142315 -0.82148486 0.06038717
000060 c6 5b 96 3f 03 09 ed bf 12 db 96 bf 9c 88 02 bf
       1.1746757 -1.8518375 -1.1785605 -0.509897
000070 8f c2 39 3f 44 3c 5d 3f 38 19 85 bf 20 3f b8 be
       0.725625 0.86420083 -1.0398321 -0.3598566
000080 e8 1d cb bf a0 20 cb bd 8a 87 88 3e b3 b3 02 3f
       -1.5868502 -0.09918332 0.26665908 0.5105545
000090 96 d5 05 be ea ea b7 3e 99 9c bc 3e 77 4b b5 bf
       -0.13069758 0.35921413 0.36838225 -1.4163655
0000a0 fb f0 25 3f 45 ca 3c 3f c7 fa 06 40 83 8b 0e 3f
       0.6482083 0.7374614 2.1090562 0.5568163
0000b0 01 df f0 be ea b7 fb 3f a9 b7 18 c0 bf 05 cf bf
       -0.47045138 1.9665501 -2.3862097 -1.6173629
0000c0 54 2c 40 bf ac ff 9d bf e7 7c 9b 3f 0c ad 47 3d
       -0.7506764 -1.234365 1.2147492 0.048749015
0000d0 04 d7 fd 3f 2d 64 19 bf f7 1a c5 be b5 b3 70 bd
       1.9831243 -0.5991848 -0.38497135 -0.058765132
0000e0 31 55 2b 3f 9d 57 49 bf 9f ad 09 c0 52 2d d4 3d
       0.66926867 -0.7864931 -2.151222 0.10360207
0000f0 36 26 e3 3f 9b 8f 03 3f df 90 13 40 47 6e 48 3e
       1.7746036 0.51391 2.3057172 0.19573317
000100 49 ae b7 be 48 f4 11 c0 64 61 be 3d e8 9d 98 bf
       -0.35875157 -2.2805347 0.092959195 -1.1923189
000110 94 c8 ac 3f ff 90 eb be df 9c b6 3f 03 41 6c bf
       1.3498712 -0.4600906 1.4266623 -0.922867
000120 3c d1 32 be 00 05 46 3e 4b 95 2e 3e 82 95 02 be
       -0.17462629 0.19337845 0.17049138 -0.12752345
000130 8e 89 a2 3f 1e ed 92 bd e9 1e 8e 3e 00 50 17 c0
       1.2698228 -0.07174133 0.27757958 -2.3642578
000140 cd b9 d3 3e 0f 97 3f c0 da bf 41 3f 47 72 a1 3f
       0.41352692 -2.993595 0.7568337 1.2613
000150 bb b5 32 3f cc 90 b1 3f 0a 08 73 3f 27 cd f1 3f
       0.6980855 1.3872313 0.9493414 1.8890733
000160 b2 62 36 40 a2 a4 c7 be 8c 65 b5 bf 2a a5 ea 3d
       2.849774 -0.38992792 -1.4171615 0.11457284
000170 85 37 92 3f 31 c9 92 bf 6d 68 b8 bf d7 2b 65 3e
       1.1423193 -1.1467649 -1.4406868 0.22380005
000180 ea b6 a8 bf a5 5d 26 40 c1 e5 3c bf 61 86 69 3f
       -1.3180821 2.5994656 -0.73788077 0.9122067
000190 89 16 c3 3f 9c 85 a0 bf 80 c7 68 be ca dd d8 3e
       1.5241252 -1.2540774 -0.22732353 0.42356712
0001a0 b8 cb d7 3f ee 79 bf bf da 59 41 3f f6 04 46 3e
       1.6859045 -1.4959085 0.7552773 0.1933783
0001b0 44 28 69 be cb 07 57 bf 77 92 8b 3f 96 33 37 3f
       -0.22769266 -0.83996266 1.0904073 0.7156309
0001c0 97 8b 33 be 7d d1 22 bf a7 29 48 bd 17 36 5f bf
       -0.17533718 -0.63600904 -0.048867848 -0.8719191
0001d0 51 ec d3 3f c5 5d d6 bf 09 35 05 3f d1 fe 3d be
       1.6556493 -1.6747366 0.5203405 -0.18554236
0001e0 d1 f1 94 3e 29 4f c2 3f 08 f8 92 bf 77 51 06 3f
       0.2909074 1.5180408 -1.1481943 0.52468055
0001f0 8c e2 35 3e 4d 93 87 bf 8e c1 c2 bc 65 2b e0 be
       0.17762202 -1.0591828 -0.023773935 -0.43783107
000200 82 14 15 c0 0a 22 3d 3f e2 6b ec 3e 25 63 1d 40
       -2.3293767 0.73880064 0.46176058 2.4591763
000210 f4 2e ad 3e f7 b3 41 bf d3 11 16 be 8e ef 57 be
       0.33824885 -0.7566523 -0.14655237 -0.21087477
000220 b8 b1 4f 3e 2e 8f 01 3f 47 17 fc 3e 25 87 45 bf
       0.20282638 0.506091 0.4923651 -0.7715934
000230 5f 2c 70 bf 88 e6 f3 be 67 8d f3 3c 73 60 86 3d
       -0.93817705 -0.4763682 0.029730512 0.06561365
000240 be b2 c8 be de 8f 4b be 94 ff b8 3f 93 42 10 3e
       -0.3919887 -0.198791 1.4452996 0.14087896
000250 81 fc 96 3e ba 33 26 c0 92 6f 9c bf 08 a4 5a be
       0.2948952 -2.5969071 -1.2221549 -0.21351635
000260 85 d0 3d 3f ed 12 50 3f 79 53 5d 3f 03 69 1e bf
       0.741463 0.8127888 0.86455494 -0.61878985
000270 9c 4b 0d 3f 2f 18 3a 3f cf 4c e7 3f cc 20 a1 3f
       0.55193496 0.7269315 1.8070315 1.2588134
000280 9e 38 7f bf 61 63 c1 3f 56 f9 c3 3f 2d 82 e9 3e
       -0.99695766 1.5108453 1.5310466 0.4560713
000290 44 9b e0 3f 07 78 ed 3f 56 6b 39 bf 9e bf 03 bf
       1.7547383 1.8552254 -0.72429407 -0.5146426
0002a0 1d f3 e1 bd 38 db 38 3f 82 88 ee 3f eb f0 8c 3f
       -0.11032698 0.722095 1.8635409 1.1011022
0002b0 e8 6a bd 3f de 70 94 3f 45 da 94 3e 17 d8 ab 3f
       1.479825 1.1596944 0.29072776 1.342532
0002c0 8f 88 96 3e 75 75 70 3f 3a 20 c3 3f 80 16 d9 bf
       0.2940106 0.93929225 1.524421 -1.6959991
0002d0 e8 52 ec 3b 81 46 a0 3f 8f 2b a6 3d a2 0c f5 be
       0.0072120316 1.2521516 0.08113777 -0.478612
0002e0 1d 6a 32 3f 11 ce d7 be 84 87 31 be 21 ac d4 3f
       0.69693166 -0.42149404 -0.17336851 1.661503
0002f0 5a 7b a5 bf 34 d3 2c 3f 5f aa 0c bf 0b 1b 89 3d
       -1.2928269 0.6750977 -0.54947466 0.06694611
000300 47 f9 00 40 44 7e fb be 2a c5 c5 3f a0 30 af be
       2.0152147 -0.4911977 1.5450795 -0.34216785
000310 f5 47 28 3f 96 7d 8e 3f 2b cb 30 3f 6e b1 20 40
       0.657348 1.1132076 0.6906001 2.5108294
000320 3a dd a3 bf e6 5a 08 bf 32 1b a9 3f 6a 94 e5 bd
       -1.2801888 -0.532637 1.3211424 -0.11209948
000330 f1 a2 db 3f d6 21 a5 3d e2 a4 b0 3f fd b6 ee bf
       1.7159101 0.08063094 1.3800318 -1.8649594
000340 25 62 04 3f 9a 69 f4 bf 26 ce 41 3f 6f 06 19 bf
       0.51712257 -1.9094727 0.7570518 -0.5977544
000350 50 83 5d bf 5a 44 0c 3f 04 c4 0b 3f b6 99 bb 3d
       -0.8652849 0.54791796 0.5459597 0.091601774
000360 55 f9 45 bf 5e 28 0e c0 19 d6 53 bf 5e 7a 69 3d
       -0.77333575 -2.2212138 -0.8274856 0.057001464
000370 26 25 19 3f 8f 40 24 bc df 1f 04 40 82 6c d5 be
       0.5982231 -0.010025158 2.0644453 -0.41684347
000380 19 ea 15 bf 20 ce 72 bf f3 35 84 3f 42 31 08 3f
       -0.5856033 -0.9484577 1.0328964 0.5320016
000390 32 cf 9c 3f 6a b7 a8 3f 7c b6 ef be 05 ef a6 3e
       1.2250731 1.3180974 -0.46818912 0.32604232
0003a0 ba 67 b3 3c ad d6 f5 bf 81 b3 01 40 73 a0 38 3f
       0.021900047 -1.9206139 2.026581 0.72119826
0003b0 98 4b 89 3f 90 1e 99 3e ec 24 ed 3e 89 01 4c bf
       1.0726194 0.2990613 0.46317232 -0.7968984
0003c0 6c df 0e 3e 08 8d f8 3f c3 86 4e 3f 41 28 eb 3f
       0.13952416 1.9418039 0.8067438 1.837166
0003d0 d6 e6 e9 be 8d f0 b3 be a1 db 57 bf 4f 87 95 3f
       -0.45683926 -0.35144463 -0.843195 1.1681918
0003e0 0f 71 4d 3d e5 e0 1a be 1f bf 6d 3f 67 3d c0 3f
       0.05015665 -0.15124853 0.9286975 1.5018739
0003f0 cf 3e 8e 3f 45 fd e2 3f 8b ca f9 3f 70 12 89 3e
       1.1112918 1.7733542 1.9514936 0.2677188

bias f4 [32]
000000 00 00 00 00 00 00 00 00 00 00 00 00 00 00 00 00
       0.0 0.0 0.0 0.0
000010 00 00 00 00 00 00 00 00 00 00 00 00 00 00 00 00
       0.0 0.0 0.0 0.0
000020 00 00 00 00 00 00 00 00 00 00 00 00 00 00 00 00
       0.0 0.0 0.0 0.0
000030 00 00 00 00 00 00 00 00 00 00 00 00 00 00 00 00
       0.0 0.0 0.0 0.0
000040 00 00 00 00 00 00 00 00 00 00 00 00 00 00 00 00
       0.0 0.0 0.0 0.0
000050 00 00 00 00 00 00 00 00 00 00 00 00 00 00 00 00
       0.0 0.0 0.0 0.0
000060 00 00 00 00 00 00 00 00 00 00 00 00 00 00 00 00
       0.0 0.0 0.0 0.0
000070 00 00 00 00 00 00 00 00 00 00 00 00 00 00 00 00
       0.0 0.0 0.0 0.0
